…
    "                                               # of -46 degrees, it is outside its prediction range. Using it can however decrease training time, as you reduce the search space.\n",
    "        )\n",
    "\n",
    "\n",
    "    def forward(self, x):                                           \n",
    "        x = x.float()                                              \n",
    "        out = self.FeedForwardLayers(x)\n",
    "        return out"
   ]
  },
  {
   "cell_type": "code",
   "execution_count": 168,
   "id": "d1bc023a",
   "metadata": {},
   "outputs": [
    {
     "name": "stdout",
     "output_type": "stream",
     "text": [
      "CNN(\n",
      "  (FeedForwardLayers): Sequential(\n",
      "    (0): Conv2d(1, 64, kernel_size=(3, 3), stride=(1, 1))\n",
      "    (1): BatchNorm2d(64, eps=1e-05, momentum=0.1, affine=True, track_running_stats=True)\n",
      "    (2): ReLU()\n",
      "    (3): Conv2d(64, 32, kernel_size=(3, 3), stride=(2, 2))\n",
      "    (4): BatchNorm2d(32, eps=1e-05, momentum=0.1, affine=True, track_running_stats=True)\n",
      "    (5): ReLU()\n",
      "    (6): Conv2d(32, 16, kernel_size=(3, 3), stride=(2, 2))\n",
      "    (7): BatchNorm2d(16, eps=1e-05, momentum=0.1, affine=True, track_running_stats=True)\n",
      "    (8): ReLU()\n",
      "    (9): Conv2d(16, 8, kernel_size=(3, 3), stride=(2, 2))\n",
      "    (10): BatchNorm2d(8, eps=1e-05, momentum=0.1, affine=True, track_running_stats=True)\n",
      "    (11): ReLU()\n",
      "    (12): Conv2d(8, 8, kernel_size=(3, 3), stride=(2, 2))\n",
      "    (13): BatchNorm2d(8, eps=1e-05, momentum=0.1, affine=True, track_running_stats=True)\n",
      "    (14): ReLU()\n",
      "    (15): Flatten(start_dim=1, end_dim=-1)\n",
      "    (16): Linear(in_features=528, out_features=256, bias=True)\n",
      "    (17): ReLU()\n",
      "    (18): Linear(in_features=256, out_features=1, bias=True)\n",
      "    (19): Tanh()\n",
      "  )\n",
      ")\n",
      "Number of trainable parameters: 161409\n"
     ]
    }
   ],
   "source": [
    "# Lets view our model structure and number of trainable parameters.\n",
    "\n",
    "model_dm = CNN()\n",
    "print(model_dm)\n",
    "\n",
    "nbr_params = count_parameters(model_dm)\n",
    "print(f'Number of trainable parameters: {nbr_params}') # Again, notice the increase in number of trainable parameters.\n"
…
